models/SimpleRNN/best_model_small.pth (torch, 630504 bytes, 7 tensors)

embedding.weight f4 [97, 128]
0.1277317 -0.18883428 -0.078407854 0.35076708 0.021207824 0.07822604 0.03290258 0.2527553
0.2716821 0.008520378 -0.16374359 -0.10487448 -0.039606318 0.0069152457 -0.13566723 0.25725612
0.04822082 0.10671921 -0.4526605 0.14176382 0.007222158 -0.18897696 0.0057517914 0.2697288
0.31514153 0.03383585 -0.15999596 -0.29219368 0.10267381 0.2989354 -0.312048 0.18915266
-0.048168425 0.116829984 -0.13733059 -0.14626786 -0.1552256 -0.20398434 0.3329289 -0.36967152
-0.21298765 -0.125319 -0.18578866 0.061074194 -0.013158018 0.10911652 0.26957092 -0.06582503
-0.064556465 0.14623757 -0.10315578 0.04687675 -0.19437622 0.35534975 0.18851317 -0.03630274
0.14525338 -0.13191663 -0.06970298 0.10206099 0.1817257 -0.44290802 -0.2022063 -0.1823298
0.2575947 0.12803388 0.17603849 0.34885857 -0.23763101 -0.21949874 -0.12286234 -0.10862326
0.039893825 0.28815877 -0.36350298 0.0022376915 -0.1965196 -0.038041394 -0.049889818 -0.14906748
0.08654058 -0.12821487 0.035566293 0.09327301 -0.070992395 0.07740624 0.15436548 -0.11063882
-0.02201929 0.023341347 -0.12346382 0.062017016 -0.01517271 0.06138946 0.14652047 -0.010688449
0.015895307 -0.1284349 -0.09036433 -0.07397171 0.10455189 -0.20944312 0.31135103 0.11810284
0.058980502 0.34228623 -0.016097087 -0.055196222 -0.17321353 0.07000754 -0.10611794 -0.3333893
-0.073253475 -0.07254495 -0.0819632 -0.0114791645 0.06030143 0.16702926 -0.08126704 0.10989799
-0.05584755 0.05149268 -0.06808454 -0.17014311 -0.07869709 -0.047562514 0.16635051 -0.08535502
-0.028718412 -0.0144161815 -0.005371458 -0.08598442 -0.020314222 -0.029506126 -0.07903863 0.019273862
-0.023140794 0.03692486 -0.16026202 -0.011713397 0.015520816 -0.07671444 -0.0033447712 0.021417601
-0.0060922783 0.029354718 0.00625682 0.07536979 0.033028234 0.07142874 -0.020718675 0.031943094
0.3367725 0.03261057 0.18029201 -0.013158521 0.024864974 0.022399917 0.08205919 0.11066068
-0.0073188166 0.05571332 0.17298692 0.2507652 -0.0831462 0.011546504 0.034262884 -0.032007888
0.029114595 0.059388362 -0.009890786 0.017749306 0.09690942 -0.0056172186 -0.049750738 -0.0039792745
0.043262117 -0.005416071 0.06674609 0.07033007 -0.017408986 1.625043 0.06311149 0.0006227648
0.00432542 0.024479194 -0.009043664 -0.054760236 -0.20292592 0.04753626 -0.012630589 -0.07154492
0.025731308 -0.015203285 0.003370748 0.11040054 0.009614159 -0.022075262 -0.050979137 0.04213704
0.0040384866 0.06325736 -4.707169 0.037541244 -0.028331382 -0.025405157 0.029650856 0.028856212
-0.068049446 0.09406672 -0.01056788 0.040009137 0.015401993 0.13347195 0.059695385 -0.0062201563
-0.11723483 -0.059352174 0.018246138 -0.041826457 -0.17973307 0.005589934 0.024051974 -0.09885399
-0.0014598994 -0.21359111 -0.027015561 0.057553813 0.0021682633 0.04872159 -0.008580625 -0.058313005
0.018772991 0.42739668 -0.032495253 -0.0649503 0.0050909943 -0.026569081 0.0028617207 -0.057636555
0.053643476 -0.2952205 0.009577323 -0.022508381 0.086430825 -0.006170938 -0.007437838 -0.0036841496
-0.04174651 -0.11876435 0.003409058 -0.029380953 0.045856524 -0.0074452935 -0.010894934 -0.019535284
00000000: 19cc 023e c65d 41be 4c94 a0bd be97 b33e
00000010: 08bc ad3c f934 a03d dbc4 063d 2569 813e
00000020: eb19 8b3e 0e99 0b3c 66ac 27be 6ec8 d6bd
00000030: 3c3a 22bd 4999 e23b 5aec 0abe 13b7 833e
00000040: 3283 453d 9a8f da3d 1ec3 e7be 892a 113e
00000050: daa7 ec3b 2d83 41be 8679 bc3b e519 8a3e
00000060: 3b5a a13e 7697 0a3d fbd5 23be 699a 95be
00000070: a646 d23d 100e 993e c1c4 9fbe 3cb1 413e
00000080: 414c 45bd 8f44 ef3d 64a0 0cbe 3ec7 15be
00000090: 76f3 1ebe 45e1 50be a875 aa3e 9645 bdbe
000000a0: 6f19 5abe a053 00be 623f 3ebe ef28 7a3d
000000b0: ba94 57bc 7b78 df3d 3305 8a3e 46cf 86bd
000000c0: 2e36 84bd 4dbf 153e 5643 d3bd d601 403d
000000d0: 8f0a 47be 67f0 b53e 9909 413e 2fb2 14bd
000000e0: 4dbd 143e 2715 07be 70c0 8ebd 5a05 d13d
000000f0: 4d16 3a3e d7c4 e2be 2b0f 4fbe aab4 3abe
00000100: 74e3 833e 501b 033e 6f43 343e 979d b23e
00000110: 8b55 73be 47c4 60be 409f fbbd df75 debd
00000120: b567 233d 8c89 933e 101d babe 3ca6 123b
00000130: 6f3c 49be 4bd1 1bbd 4459 4cbd 25a5 18be
00000140: 303c b13d c24a 03be f6ad 113d eb05 bf3d
00000150: 7664 91bd 2a87 9e3d fc11 1e3e 9b96 e2bd
00000160: cc61 b4bc 5a36 bf3c 99da fcbd 8e05 7e3d
00000170: f596 78bc 8473 7b3d 7609 163e 9b1e 2fbc
00000180: e036 823c 7084 03be ef10 b9bd 7b7e 97bd
00000190: 4d1f d63d 4278 56be 6769 9f3e e7df f13d
000001a0: 8a95 713d 2440 af3e 0ade 83bc 6f15 62bd
000001b0: e35e 31be 1d60 8f3d 5d54 d9bd 01b2 aabe
000001c0: eb05 96bd 7292 94bd 52dc a7bd 1b13 3cbc
000001d0: a2fe 763d b809 2b3e 556f a6bd 3312 e13d
000001e0: 67c0 64bd fde9 523d e86f 8bbd ff39 2ebe
000001f0: f12b a1bd e9d0 42bd ca57 2a3e 9dce aebd
00000200: e042 ebbc d931 6cbc 0e03 b0bb 9918 b0bd
00000210: 036a a6bc d5b6 f1bc 01df a1bd 38e4 9d3c
00000220: c391 bdbc 863e 173d ba1b 24be 8ce9 3fbc
00000230: 054b 7e3c 761c 9dbd f333 5bbb f773 af3c
00000240: bca1 c7bb 4e79 f03c 0306 cd3b 7a5b 9a3d
00000250: 9d48 073d 3b49 923d 36ba a9bc c3d6 023d
00000260: 726d ac3e a992 053d 789e 383e d696 57bc
00000270: a1b1 cb3c 0880 b73c a60e a83d 11a2 e23d
00000280: afd2 efbb a633 643d 7c23 313e 4c64 803e
00000290: 8e48 aabd 8c2d 3d3c 3d57 0c3d b41a 03bd
000002a0: bb81 ee3c 3641 733d f70c 22bc fe66 913c
000002b0: 7278 c63d a510 b8bb 6ec7 4bbd 9364 82bb
000002c0: 9e33 313d 4c79 b1bb 2db2 883d 3609 903d
000002d0: 4a9d 8ebc 6901 d03f 9940 813d 0a41 233a
000002e0: 41bc 8d3b 9788 c83c e02b 14bc 454c 60bd
000002f0: d0cb 4fbe 62b5 423d 88f0 4ebc 2586 92bd
00000300: 77ca d23c 3317 79bc c4e7 5c3b ae19 e23d
00000310: b584 1d3c 2ed7 b4bc 80cf 50bd e497 2c3d
00000320: 4855 843b 138d 813d 21a1 96c0 d9c4 193d
00000330: 3717 e8bc 7a1e d0bc 5ae6 f23c dd63 ec3c
00000340: 825d 8bbd 0da6 c03d e724 2dbc 9fe0 233d
00000350: a458 7c3c dfac 083e 2683 743d 74d2 cbbb
00000360: d118 f0bd 441b 73bd ed78 953c 3852 2bbd
00000370: f20b 38be c42b b73b a508 c53c f673 cabd
00000380: 185a bfba a1b7 5abe bd4f ddbc 8cbd 6b3d
00000390: 6c19 0e3b 4a90 473d c095 0cbc 9ed9 6ebd
000003a0: d1c9 993c bdd3 da3e be19 05bd aa04 85bd
000003b0: 5bd2 a63b 67a7 d9bc b58b 3b3b 4f14 6cbd
000003c0: 43b9 5b3d 2427 97be 34ea 1c3c 7f63 b8bc
000003d0: a502 b13d 9435 cabb 1bb9 f3bb c671 71bb
000003e0: 63fe 2abd b93a f3bd 816a 5f3b 53b0 f0bc
000003f0: 0dd4 3b3d a6f7 f3bb aa80 32bc 7608 a0bc

lstm.weight_ih_l0 f4 [512, 128]
0.2656584 -0.050045837 -0.02859471 0.8119415 0.04346074 -0.2271448 -0.4519483 0.71988726
0.019211037 -0.15392068 -0.03198974 -0.008617897 0.81532013 -0.4230475 0.011054143 0.01073515
-0.03643825 0.5646541 0.177611 0.38532695 -0.57964146 -0.0046804156 0.38409004 -0.12551524
-0.30532455 -0.23606731 -0.39771536 0.39170808 0.8407216 -0.21493259 -0.18643281 0.07842946
-0.0329513 0.10982621 -0.13055724 0.7132923 -0.12333266 0.19128363 -0.11772489 -0.121432684
0.797012 0.70838004 0.5855957 -0.66846997 -0.6207531 0.2329932 0.8815843 0.55509007
1.1794177 0.04820405 0.0037301176 -0.22787388 0.24528454 1.3498654 -0.138449 0.020804388
-0.085416004 -0.8107325 -0.07966002 0.045885116 0.09270281 0.58795816 -0.010955129 0.5129325
-0.8086859 -0.014913654 0.020592926 -0.50300133 0.46905154 0.017666683 -0.74605465 -0.20409134
0.14624436 0.10348969 -0.66859347 -0.277762 0.52070737 -0.054057185 0.04477297 0.015694626
-0.6451853 -0.016096594 -0.05288559 0.4240399 0.09126637 0.28019005 -0.33100948 0.01915333
-0.24664989 -0.020671455 -0.4467535 -0.102149196 0.26557997 0.07502406 -0.29336163 0.07886808
-0.0057854652 -0.3187947 0.064162046 -1.0626098 -0.003950591 -0.030526085 0.12920777 -0.44730073
0.05378051 1.2935761 0.0129039185 -0.7689131 -0.1011796 0.038352124 0.43287605 0.3120738
-0.45177725 0.30403015 0.080856 0.07838597 -0.32271382 0.1269051 -0.05761253 -0.0756726
-0.22116497 -0.49713954 -0.01157545 -0.43759805 0.078642875 -0.0505467 -0.29889277 0.010900489
0.11818243 0.030364351 -0.040067222 -0.35126024 0.051781654 -0.42389616 -0.41271397 0.22222573
-0.117796205 -0.021993877 0.12626983 0.052030906 0.3497735 -0.28977647 -0.060411006 0.2981782
-0.05448102 -0.2156747 0.3902271 0.19428773 -0.19179335 -0.12116569 0.11410085 0.05907611
-0.25727415 0.030564884 -0.17425783 0.0311696 -0.14110303 -0.015574232 -0.5638123 -0.24069436
0.062031895 -0.1802039 0.82099557 -1.0376168 -0.18261938 0.6585221 -0.4342947 -0.26854807
1.4513062 0.11102981 0.14048639 0.59765875 0.057688903 -0.22554496 0.225683 0.00670783
0.40813264 1.0081533 0.093741566 0.20015118 0.3202002 -0.051263753 -0.45602185 0.046203822
-0.9132198 0.102426805 0.06234122 -0.16393794 -0.6377254 0.49737093 0.039321985 1.0015781
0.057185967 0.04379617 0.012743751 -0.25651303 -0.050409805 0.10014985 0.107653156 0.59874415
-0.2964496 0.7834254 0.13419084 0.23693438 -0.045161054 0.026880227 -0.33900318 0.41967708
-0.04254931 -0.4439595 0.06788864 0.34184378 -0.050058905 -0.61013997 0.14030647 0.045764808
1.1292295 0.12641405 -0.5973057 0.048875663 -0.21096495 -0.2579961 -0.05587115 -0.0867947
0.018006632 0.2364956 0.016848793 -0.26028463 0.0032631543 0.81534433 -0.5927342 -0.13759272
-0.009335406 -0.019266417 0.042495526 0.46420392 -0.023635436 0.06426267 0.93955475 0.27085644
-0.44652918 0.62985784 -0.013352932 0.019084275 -0.037198983 0.02747309 0.057159647 -0.38469175
0.22308432 -0.11221867 -0.007723122 -0.42822057 0.0077669285 -0.0009792944 -0.32945627 -0.005429171
00000000: 6104 883e ddfc 4cbd 743f eabc 66db 4f3f
00000010: e403 323d a598 68be c465 e7be 884a 383f
00000020: 7760 9d3c 629d 1dbe ac07 03bd 1432 0dbc
00000030: d2b8 503f af99 d8be 701c 353c 7ce2 2f3c
00000040: 4640 15bd 2c8d 103f a8df 353e 9349 c53e
00000050: 6263 14bf 2c5e 99bb 73a7 c43e 1187 00be
00000060: 8053 9cbe a1bb 71be 59a1 cbbe f68d c83e
00000070: 8839 573f 4a17 5cbe 3ee8 3ebe a09f a03d
00000080: f1f7 06bd 90ec e03d ccb0 05be 539a 363f
00000090: d595 fcbd dbdf 433e bf19 f1bd b3b1 f8bd
000000a0: fa08 4c3f 6558 353f 9ae9 153f d920 2bbf
000000b0: ade9 1ebf c595 6e3e 82af 613f 621a 0e3f
000000c0: 29f7 963f 9c71 453d fd74 743b c557 69be
000000d0: df2b 7b3e 64c8 ac3f 93c5 0dbe f76d aa3c
000000e0: 96ee aebd 2a8c 4fbf cb24 a3bd 08f2 3b3d
000000f0: f9da bd3d 6d84 163f 247d 33bc 8b4f 033f
00000100: 0a06 4fbf 6658 74bc 7fb2 a83c b2c4 00bf
00000110: 8627 f03e b8b9 903c 70fd 3ebf 52fd 50be
00000120: 15c1 153e 67f2 d33d f128 2bbf d236 8ebe
00000130: 144d 053f 116b 5dbd dd63 373d 0492 803c
00000140: dd2a 25bf 01dd 83bc 8f9e 58bd c21b d93e
00000150: dde9 ba3d 1275 8f3e 137a a9be 72e7 9c3c
00000160: ca91 7cbe 2f57 a9bc e0bc e4be 9933 d1bd
00000170: 19fa 873e 37a6 993d 7f33 96be 9785 a13d
00000180: 0094 bdbb 0f39 a3be 6467 833d 9903 88bf
00000190: f673 81bb d711 fabc 0b4f 043e 9a04 e5be
000001a0: f448 5c3d e793 a53f f56a 533c 7dd7 44bf
000001b0: 4037 cfbd 1e17 1d3d eea1 dd3e 23c8 9f3e
000001c0: 594f e7be d7a9 9b3e d597 a53d d388 a03d
000001d0: bf3a a5be 69f3 013e 1efb 6bbd 3cfa 9abd
000001e0: 1279 62be 1389 febe f5a6 3dbc da0c e0be
000001f0: 840f a13d 0e0a 4fbd 7908 99be f797 323c
00000200: a109 f23d a9be f83c 871d 24bd 62d8 b3be
00000210: 0019 543d eb08 d9be 3f4f d3be 248f 633e
00000220: 233f f1bd 812c b4bc e14c 013e 5c1e 553d
00000230: 8315 b33e 955d 94be 8871 77bd d0aa 983e
00000240: 7d27 5fbd d4d9 5cbe d9cb c73e 5df3 463e
00000250: 7a65 44be b825 f8bd b5ad e93d cbf9 713d
00000260: 70b9 83be 3563 fa3c a570 32be 6457 ff3c
00000270: 507d 10be 102b 7fbc 0156 10bf 9578 76be
00000280: 2815 7e3d 5f87 38be c42c 523f a1d0 84bf
00000290: 9300 3bbe e894 283f e05b debe 227f 89be
000002a0: 67c4 b93f 9963 e33d aadb 0f3e 2a00 193f
000002b0: 334b 6c3d 42f5 66be 7219 673e 5bcd db3b
000002c0: c3f6 d03e 2b0b 813f 94fb bf3d 6ef4 4c3e
000002d0: 48f1 a33e f1f9 51bd b27b e9be 3840 3d3d
000002e0: c6c8 69bf 25c5 d13d 8259 7f3d 59df 27be
000002f0: f941 23bf 67a7 fe3e 1710 213d b633 803f
00000300: d53b 6a3d 9d63 333d 2acb 503c ad55 83be
00000310: 837a 4ebd 5d1b cd3d 4279 dc3d 4c47 193f
00000320: 3ec8 97be 918e 483f 5369 093e ed9e 723e
00000330: ccfa 38bd ec33 dc3c d391 adbe eadf d63e
00000340: 2f48 2ebd a94e e3be 3309 8b3d 2606 af3e
00000350: 910a 4dbd 2232 1cbf 80ac 0f3e e173 3b3d
00000360: 988a 903f af72 013e 07e9 18bf d931 483d
00000370: 3207 58be 1118 84be 26d9 64bd 6bc1 b1bd
00000380: a582 933c e72b 723e 7b06 8a3c 0744 85be
00000390: a5da 553b 68ba 503f 6ebd 17bf 1be5 0cbe
000003a0: 88f3 18bc 9bd4 9dbc ca0f 2e3d 23ac ed3e
000003b0: 1a9f c1bc 269c 833d a986 703f b2ad 8a3e
000003c0: 799f e4be 5d3e 213f 42c6 5abc a056 9c3c
000003d0: f65d 18bd 3f0f e13c 3c20 6a3d 51f6 c4be
000003e0: 3770 643e e7d2 e5bd 3e12 fdbb ba3f dbbe
000003f0: b881 fe3b ab5b 80ba 7eae a8be 30e7 b1bb

lstm.weight_hh_l0 f4 [512, 128]
-0.24328452 0.5586993 -0.3028251 -0.054111596 -0.655899 -0.8851811 0.28056154 0.78211015
-0.19452168 -0.99513173 -0.057068635 0.11526155 0.7629915 -0.31433728 -0.37900504 0.10741658
0.38930205 0.18673685 -0.33332554 -0.023123618 0.29156575 0.7159343 0.11815187 0.6378584
1.6822075 -0.46282265 -1.3392276 -0.22281243 0.33018664 0.3745058 0.67080927 0.09702104
-0.369475 -0.28661463 0.38681126 -0.3890085 -0.18903685 -0.063057914 -0.36888307 -0.14756764
0.06369387 -0.15443406 -0.67055494 -0.25663006 -0.110497594 0.07065315 0.7681995 0.54771173
0.030111596 -0.35459596 -0.22112218 -1.1379288 -0.87360275 0.30961388 -0.05501146 0.042898405
0.45944357 0.377228 0.23471043 -0.8908084 0.13317613 -0.3280818 0.49852204 -0.089089096
-0.080583714 -0.071558066 -0.17574643 -0.046204925 -0.70602995 -0.13885653 -0.3163369 -0.8360566
-0.0418697 0.046324994 -0.39621857 0.2238291 0.1574495 -0.49654 -0.71305186 0.85738903
0.94737786 -0.73621035 0.33304217 -0.26658243 -0.02988908 0.21555707 0.53112787 0.1080262
0.29895675 0.012597676 -0.27690557 -0.09378465 0.45162782 0.42152193 0.48830888 -0.58537155
0.049769863 0.23006566 -0.5216989 -0.25576794 -0.4891592 0.5614113 0.51263 0.09920077
-0.23494324 -0.6219706 -0.9002206 0.059742685 0.036153648 -0.56372726 0.0009993718 0.5844389
0.22772747 0.24945298 -0.37124497 0.0326837 -0.3070856 0.6715725 0.5257178 0.021831492
-0.2981213 -0.4718253 0.3194395 0.4032668 0.40886173 -0.46302992 -0.30502334 0.18625012
-0.27345273 -0.108006254 0.03658797 0.13770492 -0.054388426 0.41901588 -0.02192857 0.12126003
-0.8317372 -0.34598953 -0.27552268 0.36746186 0.066011906 0.055179853 0.30156815 0.6216123
-0.20649783 0.25544816 0.77886647 -0.50539565 -0.049766567 -0.34716383 0.4423857 0.2011741
0.19133796 -0.2737595 -0.9014094 0.6587218 -0.15773763 -0.04035888 1.0900491 0.06972787
-0.018642006 0.4057788 -0.06522572 -0.5643451 0.05908687 -0.31538814 -0.30500904 0.37192407
-0.6757221 -0.3837742 0.058837533 -0.24888006 -0.34574953 0.78983223 0.7633042 0.48486638
0.014844888 0.11330086 -0.44262138 -0.00038552083 0.4414988 -0.34129542 -0.32300615 -0.417575
0.65055066 -0.4148977 -0.15688416 -0.24945539 -0.41088203 0.03289311 0.05154332 -0.5127146
0.443931 0.020925632 -0.750879 0.56058216 -0.4635298 0.2342293 -0.10667602 -0.017288964
0.26150367 -0.1749385 0.03846764 -0.0042931666 -0.27956036 -0.41879925 -0.61247927 0.4331546
-0.1192257 -0.1326489 0.26221317 0.55135584 -0.14901307 0.012851746 -0.088104405 0.47647855
0.34090623 -0.84219277 0.13777709 0.13756174 0.6602714 0.40905252 -0.3307599 -0.35212165
0.4354747 -0.3048243 -0.07494803 -0.094431594 0.2266267 -0.22070712 -0.23332162 -0.42212567
0.8694828 0.3237428 -0.46804854 0.5405278 -0.060001764 -0.14526762 0.37502304 0.027139487
-0.1739775 -0.17372453 -0.38827443 0.09399817 -1.0137056 0.27522665 -0.49226308 -0.26791263
0.1398872 0.41158548 -0.35282412 -0.28543636 -0.115289934 0.07908814 0.71806234 0.7685093
00000000: 941f 79be eb06 0f3f e40b 9bbe 1fa4 5dbd
00000010: ffe8 27bf 3b9b 62bf c3a5 8f3e 5f38 483f
00000020: b130 47be f4c0 7ebf cdc0 69bd 3f0e ec3d
00000030: 6953 433f d1f0 a0be f30c c2be 39fd db3d
00000040: 9952 c73e f237 3f3e a5a9 aabe be6d bdbc
00000050: 1b48 953e 7847 373f 9cf9 f13d b04a 233f
00000060: 9352 d73f 17f7 ecbe cf6b abbf f128 64be
00000070: 390e a93e 39bf bf3e 28ba 2b3f f8b2 c63d
00000080: d42b bdbe 27bf 92be 200c c63e 1f2c c7be
00000090: e092 41be 8224 81bd 3ede bcbe f91b 17be
000000a0: ef71 823d f623 1ebe 7da9 2bbf 0465 83be
000000b0: 904c e2bd 99b2 903d b9a8 443f d636 0c3f
000000c0: 98ac f63c 9a8d b5be da6d 62be a7a7 91bf
000000d0: 6ea4 5fbf b685 9e3e b253 61bd 3db6 2f3d
000000e0: 303c eb3e 0724 c13e ee57 703e 050c 64bf
000000f0: 535f 083e 56fa a7be 483e ff3e 5874 b6bd
00000100: 1309 a5bd 098d 92bd dff6 33be 6041 3dbd
00000110: 61be 34bf 6830 0ebe e9f6 a1be ce07 56bf
00000120: 907f 2bbd 47bf 3d3d 29dd cabe 7533 653e
00000130: 713a 213e 7e3a febe 918a 36bf d97d 5b3f
00000140: 5b87 723f 4878 3cbf 8184 aa3e 7e7d 88be
00000150: f2d9 f4bc feba 5c3e fff7 073f d73c dd3d
00000160: dc10 993e 7c66 4e3c 91c6 8dbe 2b12 c0bd
00000170: c33b e73e b9d1 d73e 9f03 fa3e e9da 15bf
00000180: 7cdb 4b3d 5596 6b3e 0f8e 05bf 04f4 82be
00000190: 1373 fabe a7b8 0f3f b83b 033f c629 cb3d
000001a0: f694 70be 7739 1fbf db74 66bf bfb4 743d
000001b0: d915 143d 6e50 10bf 5afd 823a ca9d 153f
000001c0: 6431 693e 9a70 7f3e d213 bebe 58df 053d
000001d0: 533a 9dbe 2dec 2b3f 7195 063f f5d7 b23c
000001e0: 5ba3 98be 1693 f1be 938d a33e fc78 ce3e
000001f0: 5356 d13e 4212 edbe 052c 9cbe 5ab8 3e3e
00000200: ff01 8cbe 6232 ddbd 44dd 153d 8502 0d3e
00000210: 66c6 5ebd 4089 d63e 8ba3 b3bc 2e57 f83d
00000220: bbec 54bf 8a25 b1be 4f11 8dbe f623 bc3e
00000230: 4031 873d 4504 623d 2467 9a3e fc21 1f3f
00000240: 2b74 53be 1aca 823e cb63 473f 9c61 01bf
00000250: 07d8 4bbd 75bf b1be 6180 e23e 9500 4e3e
00000260: 19ee 433e 352a 8cbe c4c2 66bf fea1 283f
00000270: f985 21be 5a4f 25bd bb86 8b3f 7ccd 8e3d
00000280: 1fb7 98bc 3dc2 cf3e 1095 85bd ec78 10bf
00000290: 1305 723d 8e7a a1be 252a 9cbe d56c be3e
000002a0: 20fc 2cbf 0d7e c4be a0ff 703d 6ada 7ebe
000002b0: 1506 b1be 7232 4a3f e767 433f 6840 f83e
000002c0: f937 733c 480a e83d 459f e2be bb1f cab9
000002d0: 210c e23e 46be aebe 1061 a5be 64cc d5be
000002e0: 7d8a 263f 796d d4be 3ea6 20be 3c71 7fbe
000002f0: 215f d2be edba 063d 171f 533d 4441 03bf
00000300: ed4a e33e 3b6c ab3c 9b39 40bf 5082 0f3f
00000310: c753 edbe ced9 6f3e f578 dabd 96a1 8dbc
00000320: cfe3 853e 1423 33be 3e90 1d3d b1ad 8cbb
00000330: 8922 8fbe db6c d6be 71cb 1cbf 71c6 dd3e
00000340: 9b2c f4bd 1dd5 07be ce40 863e a825 0d3f
00000350: e296 18be 2190 523c 1570 b4bd fff4 f33e
00000360: 438b ae3e f299 57bf 7015 0d3e fcdc 0c3e
00000370: 8c07 293f 556f d13e 5d59 a9be 4a49 b4be
00000380: 8af6 de3e ee11 9cbe 5a7e 99bd 5a65 c1bd
00000390: d410 683e 0c01 62be ddeb 6ebe db20 d8be
000003a0: 6d96 5e3f 9ec1 a53e 0fa4 efbe 0860 0a3f
000003b0: 69c4 75bd 09c1 14be 0503 c03e a153 de3c
000003c0: 2827 32be d8e4 31be e8cb c6be 1d82 c03d
000003d0: 1bc1 81bf 82ea 8c3e e809 fcbe d82b 89be
000003e0: 973e 0f3e 55bb d23e 5da5 b4be b724 92be
000003f0: 211d ecbd f6f8 a13d efd2 373f 07bd 443f

lstm.bias_ih_l0 f4 [512]
0.12333243 0.15755609 -0.11029306 0.015197757 0.06402194 0.14216681 0.008097719 -0.71147346
0.0035859572 0.1410832 0.33569777 0.3551513 -0.45723596 0.11056649 0.22552603 0.11707293
0.15066051 -0.8199437 0.30035192 -0.041604705 -0.23442869 -0.4374538 0.09115589 0.21000999
-0.10331211 0.12229157 -0.37797228 0.10767178 -0.00858497 0.057226814 -0.0923312 -0.1443422
-0.019599596 0.34766322 0.28960466 0.04153414 -0.04717246 -0.14770828 -0.29515427 -0.023638789
-0.009021189 0.20715375 0.024239738 0.04467535 0.041475344 0.22907905 0.022841666 -0.25944936
0.21760452 0.22454025 -0.45615363 -0.16784333 -0.8356848 0.11628673 -0.040383466 0.1317787
0.17677881 0.13994965 -0.11209618 0.05955255 -0.082718514 0.29960328 0.094730385 0.16710971
0.09175886 0.23801592 -0.33768374 -0.11037019 -0.04307419 0.3533743 0.11694933 -0.03544525
0.06955833 -0.0016822056 -0.069775894 -0.4077026 -0.19082142 0.055086948 0.06602165 0.014330742
-0.04651792 0.048391502 0.21948548 0.1371505 -0.1349962 0.055642404 0.051874366 -0.00785145
0.17851733 -0.051452793 0.08487262 0.16744594 -0.10812273 0.090414174 0.15953758 0.42204377
-0.05773199 0.1995609 0.022977743 0.2596719 0.124234535 0.21837404 0.06809776 0.304265
0.23937523 -0.057438795 -0.030755306 0.2267627 0.3125183 0.100714326 0.0895302 0.08171869
0.08121265 -0.003293623 0.1382819 -0.2421938 0.5060207 0.1413838 0.24101266 -0.010711962
0.19881189 0.2898733 0.10334438 -0.8807434 0.26962498 0.27224755 0.36018354 -0.23501009
-0.24500042 -0.11777506 -0.004777235 -0.09660673 -0.39328083 -0.2873207 0.0388507 0.4677445
-0.2789582 0.07983568 -0.124490246 -0.07725946 -0.020553876 0.0937146 -0.15972902 0.22366977
-0.16647762 0.43529123 -0.26418254 -0.062484913 0.18053006 0.3550827 -0.02011773 0.08335658
0.1844987 -0.044872027 0.2077819 -0.18038209 0.15284939 0.13896807 -0.18847246 -0.33173034
-0.21676376 -0.21749668 -0.17942601 -0.42357403 -0.023040371 0.12916985 0.12317685 0.16746509
-0.04023054 -0.13579614 0.05703197 -0.2165399 -0.21040814 0.06203764 -0.008537663 0.10532092
-0.5092215 0.049754206 0.26502228 0.22568282 0.46405715 0.08198314 -0.06568148 -0.09382413
0.089785494 -0.0975094 -0.25041646 0.01058815 -0.11192292 -0.310126 -0.14893642 -0.24729422
-0.08590546 -0.33940372 0.024011642 0.012688608 -0.25510937 -0.18923797 0.00036692808 -0.15567285
0.043811303 -0.0638064 0.123339154 0.5400218 -0.10636643 -0.023958368 0.031292286 -0.21579345
0.03401293 -0.37370163 0.0724539 0.0009181105 0.18438698 -0.36354113 -0.11555514 0.122745596
0.013997175 0.09990134 0.0041720564 -0.21973409 -0.041363556 -0.119738586 0.15486822 -0.10752625
-0.33981082 -0.1447896 -0.045974996 0.09013614 -0.019252568 0.1352703 0.2825068 -0.08830235
0.07222098 -0.3331134 -0.15865228 -0.0118039455 0.026158994 -0.090874836 -0.14233252 0.3196242
0.28210554 0.08901846 0.08561514 0.026383735 -0.12594382 -0.28182578 -0.17577171 -0.3282265
-0.0016557593 -0.19187275 -0.12787245 0.34032282 0.12068619 -0.30079904 -0.17155623 0.2008518
00000000: b795 fc3d 6256 213e 54e1 e1bd 0300 793c
00000010: ef1d 833d 2d94 113e 4cac 043c 2023 36bf
00000020: 6102 6b3b 1d78 103e 94e0 ab3e 64d6 b53e
00000030: d51a eabe af70 e23d 4cf0 663e efc3 ef3d
00000040: c046 1a3e d5e7 51bf bac7 993e b269 2abd
00000050: 130e 70be f2f9 dfbe f0af ba3d dc0c 573e
00000060: 4d95 d3bd 0174 fa3d 9585 c1be 0683 dc3d
00000070: f9a7 0cbc aa66 6a3d 2418 bdbd 71ce 13be
00000080: 558f a0bc ea00 b23e 1047 943e b41f 2a3d
00000090: e937 41bd d740 17be 761e 97be 22a6 c1bc
000000a0: 9ccd 13bc 1d20 543e 6a92 c63c 80fd 363d
000000b0: 0de2 293d b393 6a3e 721e bb3c 8cd6 84be
000000c0: b8d3 5e3e e1ed 653e f88c e9be 1fdf 2bbe
000000d0: 70ef 55bf bd27 ee3d 2269 25bd fff0 063e
000000e0: 8105 353e f64e 0f3e af92 e5bd 60ed 733d
000000f0: 5368 a9bd 9a65 993e 0102 c23d cf1e 2b3e
00000100: 12ec bb3d 72ba 733e e2e4 acbe c409 e2bd
00000110: 906e 30bd 7aed b43e 2183 ef3d 0a2f 11bd
00000120: 9974 8e3d 747d dcba aae6 8ebd 65be d0be
00000130: b166 43be daa2 613d 5c36 873d 7dcb 6a3c
00000140: 9389 3ebd 2b36 463d cdc0 603e 2e71 0c3e
00000150: 723c 0abe 4ae9 633d 377a 543d 5ea3 00bc
00000160: 3fcd 363e 2ac0 52bd b2d1 ad3d f376 2b3e
00000170: 736f ddbd 112b b93d d25d 233e 1f16 d83e
00000180: 6178 6cbd b159 4c3e d23b bc3c b7f3 843e
00000190: ad6e fe3d 729d 5f3e d776 8b3d 9fc8 9b3e
000001a0: c81e 753e f144 6bbd 8df2 fbbc 7b34 683e
000001b0: 6602 a03e 5043 ce3d 9c5b b73d 215c a73d
000001c0: d152 a63d d3d9 57bb c599 0d3e a701 78be
000001d0: 938a 013f eac6 103e 06cc 763e 3a81 2fbc
000001e0: 5895 4b3e 466a 943e 38a6 d33d 6678 61bf
000001f0: 490c 8a3e 0864 8b3e fa69 b83e 7ca6 70be
00000200: 64e1 7abe 0d34 f1bd 5a8a 9cbb c0d9 c5bd
00000210: 1b5c c9be b31b 93be e921 1f3d 357c ef3e
00000220: 9cd3 8ebe e480 a33d bef4 febd 353a 9ebd
00000230: 9a60 a8bc 71ed bf3d 0190 23be b009 653e
00000240: 1c79 2abe 7ede de3e ef42 87be 2ef0 7fbd
00000250: dfdc 383e 66cd b53e f0cd a4bc dbb6 aa3d
00000260: 3aed 3c3e bbcb 37bd c7c4 543e 15b6 38be
00000270: 8d84 1c3e a54d 0e3e edfe 40be 8fd8 a9be
00000280: 52f7 5dbe 73b7 5ebe 74bb 37be b2de d8be
00000290: 29bf bcbc 1a45 043e 2544 fc3d f87b 2b3e
000002a0: c7c8 24bd 250e 0bbe 5b9a 693d a3bc 5dbe
000002b0: 3b75 57be 2e1b 7e3d 8ee1 0bbc 7fb2 d73d
000002c0: 575c 02bf 11cb 4b3d 00b1 873e 6619 673e
000002d0: e698 ed3e c7e6 a73d 0384 86bd de26 c0bd
000002e0: 75e1 b73d 02b3 c7bd 9636 80be eb79 2d3c
000002f0: d837 e5bd d6c8 9ebe ca82 18be b23a 7dbe
00000300: 34ef afbd 53c6 adbe 10b4 c43c e1e3 4f3c
00000310: b29d 82be 99c7 41be 4160 c039 b468 1fbe
00000320: 7b73 333d eeac 82bd 3d99 fc3d de3e 0a3f
00000330: a5d6 d9bd 5744 c4bc 572c 003d f5f8 5cbe
00000340: 2451 0b3d d255 bfbe b662 943d 5aad 703a
00000350: f1cf 3c3e 1022 babe 2ca8 ecbd 0b62 fb3d
00000360: 6854 653c 1399 cc3d bfb5 883b f901 61be
00000370: d56c 29bd 8139 f5bd c695 1e3e b936 dcbd
00000380: affb adbe ba43 14be 4750 3cbd 4c99 b83d
00000390: 90b7 9dbc 4c84 0a3e bba4 903e ddd7 b4bd
000003a0: 98e8 933d d78d aabe be75 22be 5665 41bc
000003b0: 634b d63c 961c babd 9ebf 11be c8a5 a33e
000003c0: 2370 903e 4f4f b63d fe56 af3d b422 d83c
000003d0: 6bf7 00be 784b 90be 80fd 33be 4e0d a8be
000003e0: 1006 d9ba 4a7a 44be fff0 02be cb3e ae3e
000003f0: 522a f73d 5502 9abe 70ac 2fbe 18ac 4d3e

lstm.bias_hh_l0 f4 [512]
0.12333243 0.15755609 -0.11029306 0.015197757 0.06402194 0.14216681 0.008097719 -0.71147346
0.0035859572 0.1410832 0.33569777 0.3551513 -0.45723596 0.11056649 0.22552603 0.11707293
0.15066051 -0.8199437 0.30035192 -0.041604705 -0.23442869 -0.4374538 0.09115589 0.21000999
-0.10331211 0.12229157 -0.37797228 0.10767178 -0.00858497 0.057226814 -0.0923312 -0.1443422
-0.019599596 0.34766322 0.28960466 0.04153414 -0.04717246 -0.14770828 -0.29515427 -0.023638789
-0.009021189 0.20715375 0.024239738 0.04467535 0.041475344 0.22907905 0.022841666 -0.25944936
0.21760452 0.22454025 -0.45615363 -0.16784333 -0.8356848 0.11628673 -0.040383466 0.1317787
0.17677881 0.13994965 -0.11209618 0.05955255 -0.082718514 0.29960328 0.094730385 0.16710971
0.09175886 0.23801592 -0.33768374 -0.11037019 -0.04307419 0.3533743 0.11694933 -0.03544525
0.06955833 -0.0016822056 -0.069775894 -0.4077026 -0.19082142 0.055086948 0.06602165 0.014330742
-0.04651792 0.048391502 0.21948548 0.1371505 -0.1349962 0.055642404 0.051874366 -0.00785145
0.17851733 -0.051452793 0.08487262 0.16744594 -0.10812273 0.090414174 0.15953758 0.42204377
-0.05773199 0.1995609 0.022977743 0.2596719 0.124234535 0.21837404 0.06809776 0.304265
0.23937523 -0.057438795 -0.030755306 0.2267627 0.3125183 0.100714326 0.0895302 0.08171869
0.08121265 -0.003293623 0.1382819 -0.2421938 0.5060207 0.1413838 0.24101266 -0.010711962
0.19881189 0.2898733 0.10334438 -0.8807434 0.26962498 0.27224755 0.36018354 -0.23501009
-0.24500042 -0.11777506 -0.004777235 -0.09660673 -0.39328083 -0.2873207 0.0388507 0.4677445
-0.2789582 0.07983568 -0.124490246 -0.07725946 -0.020553876 0.0937146 -0.15972902 0.22366977
-0.16647762 0.43529123 -0.26418254 -0.062484913 0.18053006 0.3550827 -0.02011773 0.08335658
0.1844987 -0.044872027 0.2077819 -0.18038209 0.15284939 0.13896807 -0.18847246 -0.33173034
-0.21676376 -0.21749668 -0.17942601 -0.42357403 -0.023040371 0.12916985 0.12317685 0.16746509
-0.04023054 -0.13579614 0.05703197 -0.2165399 -0.21040814 0.06203764 -0.008537663 0.10532092
-0.5092215 0.049754206 0.26502228 0.22568282 0.46405715 0.08198314 -0.06568148 -0.09382413
0.089785494 -0.0975094 -0.25041646 0.01058815 -0.11192292 -0.310126 -0.14893642 -0.24729422
-0.08590546 -0.33940372 0.024011642 0.012688608 -0.25510937 -0.18923797 0.00036692808 -0.15567285
0.043811303 -0.0638064 0.123339154 0.5400218 -0.10636643 -0.023958368 0.031292286 -0.21579345
0.03401293 -0.37370163 0.0724539 0.0009181105 0.18438698 -0.36354113 -0.11555514 0.122745596
0.013997175 0.09990134 0.0041720564 -0.21973409 -0.041363556 -0.119738586 0.15486822 -0.10752625
-0.33981082 -0.1447896 -0.045974996 0.09013614 -0.019252568 0.1352703 0.2825068 -0.08830235
0.07222098 -0.3331134 -0.15865228 -0.0118039455 0.026158994 -0.090874836 -0.14233252 0.3196242
0.28210554 0.08901846 0.08561514 0.026383735 -0.12594382 -0.28182578 -0.17577171 -0.3282265
-0.0016557593 -0.19187275 -0.12787245 0.34032282 0.12068619 -0.30079904 -0.17155623 0.2008518
00000000: b795 fc3d 6256 213e 54e1 e1bd 0300 793c
00000010: ef1d 833d 2d94 113e 4cac 043c 2023 36bf
00000020: 6102 6b3b 1d78 103e 94e0 ab3e 64d6 b53e
00000030: d51a eabe af70 e23d 4cf0 663e efc3 ef3d
00000040: c046 1a3e d5e7 51bf bac7 993e b269 2abd
00000050: 130e 70be f2f9 dfbe f0af ba3d dc0c 573e
00000060: 4d95 d3bd 0174 fa3d 9585 c1be 0683 dc3d
00000070: f9a7 0cbc aa66 6a3d 2418 bdbd 71ce 13be
00000080: 558f a0bc ea00 b23e 1047 943e b41f 2a3d
00000090: e937 41bd d740 17be 761e 97be 22a6 c1bc
000000a0: 9ccd 13bc 1d20 543e 6a92 c63c 80fd 363d
000000b0: 0de2 293d b393 6a3e 721e bb3c 8cd6 84be
000000c0: b8d3 5e3e e1ed 653e f88c e9be 1fdf 2bbe
000000d0: 70ef 55bf bd27 ee3d 2269 25bd fff0 063e
000000e0: 8105 353e f64e 0f3e af92 e5bd 60ed 733d
000000f0: 5368 a9bd 9a65 993e 0102 c23d cf1e 2b3e
00000100: 12ec bb3d 72ba 733e e2e4 acbe c409 e2bd
00000110: 906e 30bd 7aed b43e 2183 ef3d 0a2f 11bd
00000120: 9974 8e3d 747d dcba aae6 8ebd 65be d0be
00000130: b166 43be daa2 613d 5c36 873d 7dcb 6a3c
00000140: 9389 3ebd 2b36 463d cdc0 603e 2e71 0c3e
00000150: 723c 0abe 4ae9 633d 377a 543d 5ea3 00bc
00000160: 3fcd 363e 2ac0 52bd b2d1 ad3d f376 2b3e
00000170: 736f ddbd 112b b93d d25d 233e 1f16 d83e
00000180: 6178 6cbd b159 4c3e d23b bc3c b7f3 843e
00000190: ad6e fe3d 729d 5f3e d776 8b3d 9fc8 9b3e
000001a0: c81e 753e f144 6bbd 8df2 fbbc 7b34 683e
000001b0: 6602 a03e 5043 ce3d 9c5b b73d 215c a73d
000001c0: d152 a63d d3d9 57bb c599 0d3e a701 78be
000001d0: 938a 013f eac6 103e 06cc 763e 3a81 2fbc
000001e0: 5895 4b3e 466a 943e 38a6 d33d 6678 61bf
000001f0: 490c 8a3e 0864 8b3e fa69 b83e 7ca6 70be
00000200: 64e1 7abe 0d34 f1bd 5a8a 9cbb c0d9 c5bd
00000210: 1b5c c9be b31b 93be e921 1f3d 357c ef3e
00000220: 9cd3 8ebe e480 a33d bef4 febd 353a 9ebd
00000230: 9a60 a8bc 71ed bf3d 0190 23be b009 653e
00000240: 1c79 2abe 7ede de3e ef42 87be 2ef0 7fbd
00000250: dfdc 383e 66cd b53e f0cd a4bc dbb6 aa3d
00000260: 3aed 3c3e bbcb 37bd c7c4 543e 15b6 38be
00000270: 8d84 1c3e a54d 0e3e edfe 40be 8fd8 a9be
00000280: 52f7 5dbe 73b7 5ebe 74bb 37be b2de d8be
00000290: 29bf bcbc 1a45 043e 2544 fc3d f87b 2b3e
000002a0: c7c8 24bd 250e 0bbe 5b9a 693d a3bc 5dbe
000002b0: 3b75 57be 2e1b 7e3d 8ee1 0bbc 7fb2 d73d
000002c0: 575c 02bf 11cb 4b3d 00b1 873e 6619 673e
000002d0: e698 ed3e c7e6 a73d 0384 86bd de26 c0bd
000002e0: 75e1 b73d 02b3 c7bd 9636 80be eb79 2d3c
000002f0: d837 e5bd d6c8 9ebe ca82 18be b23a 7dbe
00000300: 34ef afbd 53c6 adbe 10b4 c43c e1e3 4f3c
00000310: b29d 82be 99c7 41be 4160 c039 b468 1fbe
00000320: 7b73 333d eeac 82bd 3d99 fc3d de3e 0a3f
00000330: a5d6 d9bd 5744 c4bc 572c 003d f5f8 5cbe
00000340: 2451 0b3d d255 bfbe b662 943d 5aad 703a
00000350: f1cf 3c3e 1022 babe 2ca8 ecbd 0b62 fb3d
00000360: 6854 653c 1399 cc3d bfb5 883b f901 61be
00000370: d56c 29bd 8139 f5bd c695 1e3e b936 dcbd
00000380: affb adbe ba43 14be 4750 3cbd 4c99 b83d
00000390: 90b7 9dbc 4c84 0a3e bba4 903e ddd7 b4bd
000003a0: 98e8 933d d78d aabe be75 22be 5665 41bc
000003b0: 634b d63c 961c babd 9ebf 11be c8a5 a33e
000003c0: 2370 903e 4f4f b63d fe56 af3d b422 d83c
000003d0: 6bf7 00be 784b 90be 80fd 33be 4e0d a8be
000003e0: 1006 d9ba 4a7a 44be fff0 02be cb3e ae3e
000003f0: 522a f73d 5502 9abe 70ac 2fbe 18ac 4d3e

fc.weight f4 [97, 128]
-0.23846035 0.017203987 0.95454985 -1.3186425 0.10303085 0.0127389375 -0.24253866 0.15339725
-0.06499967 1.0729502 1.7062532 0.5598045 -0.082252726 -0.049813144 0.8146574 0.5694071
0.22563282 -0.42828763 0.45262864 1.1092504 -1.1910301 0.009750707 0.15203121 0.32230437
-0.17264347 0.06398334 -0.29719114 -0.102171324 0.1054128 -0.15434052 0.65241224 0.13176939
-0.823145 0.15068094 -0.12981625 -0.07339478 0.155556 1.3556242 -0.06985924 -0.59636486
0.57996666 0.112566575 0.11488695 0.08654122 0.5057908 1.5154619 0.11941557 0.11072167
-0.14196415 0.019466214 0.31166095 0.074719936 0.09735434 2.0394669 -0.26491556 -0.088037774
-0.09240228 -1.7414383 0.97698826 -0.3411205 0.4236159 0.2927775 -0.0012997959 0.07988152
-0.3402098 0.11772627 -0.95509887 0.43182236 -0.600019 0.48136562 0.050703336 -1.0076015
0.6452537 0.6503258 0.16403168 -0.6328693 0.9853528 0.41448677 -0.40348455 -0.5546696
-0.5933989 0.27117607 -1.926541 -1.7970068 0.47576198 0.5626141 -0.12873772 -1.8292035
-0.09009182 0.5786787 0.15618558 -0.48545983 -0.28909755 -0.28529903 0.75259495 0.6750387
0.1419043 0.49039406 0.014701203 0.80187815 0.7025402 0.14409298 0.44032666 -0.17162436
2.3332655 -0.031416655 0.7023887 -0.5435162 0.33327886 1.1386255 0.0452338 0.43340102
-0.65867007 -0.03910176 0.27457237 -0.36205918 0.13982241 0.041187376 -0.3167491 -0.6346048
0.16409755 0.35456908 0.049788017 0.36088407 -1.4202994 -0.35684338 -0.06693027 0.6403919
-0.8418847 0.55416375 0.07658148 -0.7649416 0.22662587 -0.8272655 -0.06479723 -1.7097656
0.019895952 -0.18633993 0.46373308 -0.51718426 -1.2196742 -0.31811443 -0.13857096 -0.41471374
-0.38784742 1.2983806 0.6703265 -0.22397366 0.36214808 -0.8158084 0.30325913 -0.09067116
-0.72634214 0.45606944 -0.115775466 0.9336394 1.1879303 0.6856384 -0.3174958 -0.27726212
-0.4871246 0.57715684 -1.5749934 0.5959302 0.5025195 0.11623571 -0.30006516 -0.10564924
-0.20619859 -0.40102315 0.44443592 -0.22447105 -0.93803763 0.5795182 0.12628394 -0.78719455
1.5578341 0.22504158 -0.14704895 0.35218063 0.005438215 0.11889142 -0.60863066 0.20952478
-0.39864355 0.27240843 -0.96754587 0.52152157 -0.54446566 0.5221839 -0.58992803 -0.3677114
0.46074387 0.0444627 -0.33343333 0.22073084 -0.2535243 1.2567089 -2.0899167 -0.25380644
0.16084231 -0.3415739 0.0174052 -2.4504776 -0.501523 -0.96826833 0.07852977 -0.40510866
-1.1517279 -0.8013537 0.57118315 0.091707356 -0.37016153 -0.92497736 -0.22011787 -0.6735695
-0.6498729 0.54925334 0.8827037 0.5898594 -0.3428998 0.5633235 0.16184738 0.590153
0.07113552 0.2592828 0.17849533 -0.37469962 -0.8773813 0.83272153 -0.7839599 0.022520509
0.2064585 -0.6473968 0.0133532565 0.019373648 0.37847155 0.49088824 -0.34799048 -1.8289402
0.45313963 -0.6908591 -0.23463684 -0.1423597 -0.5249172 0.0012048114 0.37802455 -1.1521841
-0.06782917 0.3085379 0.81029844 -0.45719096 0.33381715 -0.7428042 0.33363083 0.03721579
00000000: f32e 74be 60ef 8c3c 615d 743f 47c9 a8bf
00000010: d701 d33d fab6 503c 0e5c 78be 2b14 1d3e
00000020: 8c1e 85bd 6f56 893f 8166 da3f 594f 0f3f
00000030: 1e74 a8bd de08 4cbd 638d 503f aac4 113f
00000040: 4a0c 673e 8448 dbbe f1be e73e ebfb 8d3f
00000050: ad73 98bf 6ec1 1f3c 12ae 1b3e 1405 a53e
00000060: 73c9 30be b309 833d 7029 98be 333f d1bd
00000070: abe2 d73d 710b 1ebe 7d04 273f 8eee 063e
00000080: a1b9 52bf 1b4c 1a3e 8dee 04be 0150 96bd
00000090: 124a 1f3e 1885 ad3f 5c12 8fbd 5eab 18bf
000000a0: b278 143f 4e89 e63d d949 eb3d 863c b13d
000000b0: 827b 013f a8fa c13f 2690 f43d 0bc2 e23d
000000c0: 0d5f 11be 9c77 9f3c 0692 9f3e c406 993d
000000d0: b661 c73d a086 0240 03a3 87be 264d b4bd
000000e0: 683d bdbd 73e7 debf e71b 7a3f 59a7 aebe
000000f0: 2fe4 d83e efe6 953e ea5d aaba ec98 a33d
00000100: fb2f aebe 781a f13d 5c81 74bf d217 dd3e
00000110: d89a 19bf 8e75 f63e 4dae 4f3d 16f9 80bf
00000120: 592f 253f c07b 263f ecf7 273e b903 22bf
00000130: 1540 7c3f 9c37 d43e 8795 cebe d4fe 0dbf
00000140: fee8 17bf 97d7 8a3e e598 f6bf 5204 e6bf
00000150: 1397 f33e 7a07 103f d2d3 03be 5723 eabf
00000160: 0f82 b8bd 4a24 143f 1def 1f3e 318e f8be
00000170: 9804 94be b712 92be 10aa 403f 56cf 2c3f
00000180: 5c4f 113e ee14 fb3e 51dd 703c e347 4d3f
00000190: add9 333f 1c8d 133e 7f72 e13e 4cbe 2fbe
000001a0: 3954 1540 c0ae 00bd bfcf 333f e123 0bbf
000001b0: 87a3 aa3e 7bbe 913f 1447 393d bde6 dd3e
000001c0: 9a9e 28bf 2b29 20bd c094 8c3e d25f b9be
000001d0: 9b2d 0f3e 18b4 283d f02c a2be 7675 22bf
000001e0: 3009 283e 148a b53e 85ee 4b3d ccc5 b83e
000001f0: 5fcc b5bf 2db4 b6be bd12 89bd b9f0 233f
00000200: c185 57bf addd 0d3f c0d6 9c3d 36d3 43bf
00000210: 9d10 683e acc7 53bf 69b4 84bd 99d9 dabf
00000220: d6fc a23c e5cf 3ebe 6c6e ed3e 3066 04bf
00000230: 491e 9cbf e5df a2be 8ce5 0dbe 5c55 d4be
00000240: f093 c6be 5631 a63f 849a 2b3f 5a59 65be
00000250: 796b b93e d2d8 50bf c844 9b3e cdb1 b9bd
00000260: 8ff1 39bf ef81 e93e b01b edbd fe02 6f3f
00000270: 1a0e 983f 0086 2f3f cf8e a2be 4df5 8dbe
00000280: 6568 f9be 8dc0 133f 6299 c9bf e28e 183f
00000290: 1ea5 003f fd0c ee3d 24a2 99be a15e d8bd
000002a0: b925 53be e852 cdbe 1b8d e33e bddb 65be
000002b0: 3c23 70bf 4e5b 143f 9450 013e 9585 49bf
000002c0: 1c67 c73f 4d71 663e 0094 16be 0551 b43e
000002d0: 0e33 b23b 587d f33d 38cf 1bbf aa8d 563e
000002e0: 021b ccbe 1e79 8b3e 16b1 77bf 7082 053f
000002f0: 1a62 0bbf d8ad 053f 8605 17bf ab44 bcbe
00000300: 9fe6 eb3e 851e 363d c6b7 aabe 4407 623e
00000310: f0cd 81be d6db a03f 32c1 05c0 ebf2 81be
00000320: d9b3 243e c6e2 aebe 5a95 8e3c a0d4 1cc0
00000330: d063 00bf 6fe0 77bf 37d4 a03d 676a cfbe
00000340: d26b 93bf 8425 4dbf 0f39 123f 11d1 bb3d
00000350: d085 bdbe 51cb 6cbf 9466 61be 0d6f 2cbf
00000360: 125e 26bf de9b 0c3f dff8 613f 0701 173f
00000370: 9090 afbe f835 103f 52bb 253e 4414 173f
00000380: 80af 913d b7c0 843e 7bc7 363e a1d8 bfbe
00000390: 109c 60bf 3d2d 553f 99b1 48bf ee7c b83c
000003a0: db69 533e ccbb 25bf 9ec7 5a3c 7cb5 9e3c
000003b0: 06c7 c13e b455 fb3e cf2b b2be b61a eabf
000003c0: eb01 e83e 24dc 30bf a444 70be bec6 11be
000003d0: f960 06bf c3ea 9d3a 6f8c c13e c57a 93bf
000003e0: 05ea 8abd aef8 9d3e b86f 4f3f ef14 eabe
000003f0: 15ea aa3e 6b28 3ebf a9d1 aa3e 966f 183d

fc.bias f4 [97]
-0.8874676 0.11311682 0.9579732 -0.8617255 -0.8060012 -0.2500996 0.10020239 -0.2115277
-0.26812023 -0.41606483 0.03887709 -0.19326422 -0.33245957 -0.50890106 0.24088633 0.20867136
-0.42525345 -0.32150662 -0.37309822 -0.2721006 -0.29068476 -0.4737166 -0.46706256 -0.44434303
-0.609639 -0.5584191 -0.44089594 -0.65240526 -0.87911093 -1.4424398 -0.61568624 -0.00026331138
-0.3280909 -1.1861172 -0.17494316 -0.09474001 -0.026694559 0.12037374 -0.20028271 -0.011928247
0.047581367 -0.055392157 -0.27613762 -0.0963754 -0.5139922 0.04643754 0.08053504 0.026224049
-0.12744796 -0.16946845 -0.23581478 -0.75960696 -0.46552688 -0.14802775 -0.20779975 -0.36326623
-0.29326704 -0.34740406 -0.020539906 -0.10423188 -0.091517635 -0.65072006 -0.0023722476 -0.076488696
0.29068404 0.21353194 -0.6100548 0.07930346 0.16685332 0.34492815 -0.27836552 0.11623025
0.0068512834 -0.19042026 0.020884696 0.49201226 -0.5185857 -0.20115216 0.1379447 0.03423666
0.09587413 0.106479034 0.0049984986 -0.15588136 -0.10799821 0.057583485 0.16004847 0.19843951
-0.21597897 -0.51290345 -0.35562384 -0.5702557 -0.9174913 0.61278975 -0.61253345 0.9489155
-0.3315845
00000000: 1431 63bf cba9 e73d bb3d 753f 0b9a 5cbf
00000010: 1856 4ebf 0e0d 80be e936 cd3d b89a 58be
00000020: 0e47 89be 7306 d5be 953d 1f3d 0ee7 45be
00000030: 2438 aabe 5747 02bf e8aa 763e f2ad 553e
00000040: d2ba d9be 849c a4be bb06 bfbe c550 8bbe
00000050: a2d4 94be fb8a f2be d322 efbe ee80 e3be
00000060: 4d11 1cbf 8ef4 0ebf 1dbd e1be 0804 27bf
00000070: 6a0d 61bf dea1 b8bf 9d9d 1dbf 0e0d 8ab9
00000080: 88fb a7be b0d2 97bf 4d24 33be 0d07 c2bd
00000090: 8cae dabc 8286 f63d e916 4dbe b26e 43bc
000000a0: aee4 423d e3e2 62bd e961 8dbe 7760 c5bd
000000b0: fe94 03bf 4a35 3e3d 8eef a43d d1d3 d63c
000000c0: b881 02be 2389 2dbe 6e79 71be 9a75 42bf
000000d0: 8a59 eebe 9694 17be 75c9 54be 08fe b9be
000000e0: 1927 96be f2de b1be 4e43 a8bc 8677 d5bd
000000f0: 996d bbbd 9795 26bf b677 1bbb 1ba6 9cbd
00000100: 8ad4 943e 1ea8 5a3e 8d2c 1cbf da69 a23d
00000110: 99db 2a3e 6c9a b03e ed85 8ebe 200a ee3d
00000120: bb80 e03b 87fd 42be 6216 ab3c 08e9 fb3e
00000130: 08c2 04bf d5fa 4dbe 6041 0d3e bd3b 0c3d
00000140: a859 c43d ae11 da3d 72ca a33b 5d9f 1fbe
00000150: 2a2e ddbd a9dc 6b3d bfe3 233e ba33 4b3e
00000160: 9729 5dbe a44d 03bf 5414 b6be 47fc 11bf
00000170: b6e0 6abf cadf 1c3f fece 1cbf 20ec 723f
00000180: 72c5 a9be
